…
   "cell_type": "code",
   "execution_count": 12,
   "metadata": {},
   "outputs": [
    {
     "name": "stdout",
     "output_type": "stream",
     "text": [
      "Model: \"model\"\n",
      "_________________________________________________________________\n",
      "Layer (type)                 Output Shape              Param #   \n",
      "=================================================================\n",
      "input_1 (InputLayer)         [(None, 64, 64, 3)]       0         \n",
      "_________________________________________________________________\n",
      "conv2d (Conv2D)              (None, 64, 64, 8)         1544      \n",
      "_________________________________________________________________\n",
      "max_pooling2d (MaxPooling2D) (None, 32, 32, 8)         0         \n",
      "_________________________________________________________________\n",
      "conv2d_1 (Conv2D)            (None, 32, 32, 4)         516       \n",
      "_________________________________________________________________\n",
      "max_pooling2d_1 (MaxPooling2 (None, 16, 16, 4)         0         \n",
      "_________________________________________________________________\n",
      "flatten (Flatten)            (None, 1024)              0         \n",
      "_________________________________________________________________\n",
      "dense (Dense)                (None, 16)                16400     \n",
      "_________________________________________________________________\n",
      "dense_1 (Dense)              (None, 3)                 51        \n",
      "=================================================================\n",
      "Total params: 18,511\n",
      "Trainable params: 18,511\n",
      "Non-trainable params: 0\n",
      "_________________________________________________________________\n"
     ]
    }
   ],
   "source": [
    "# Build and compile the model, print the model summary\n",
    "\n",
    "lsun_model = get_model((64, 64, 3))\n",
…
